/opt/rh/devtoolset-3/root/usr/lib64/python2.6/site-packages:/opt/rh/devtoolset-3/root/usr/lib/python2.6/site-packages:/home/lyh1/workspace/py-faster-rcnn/lib:/home/lyh1/workspace/py-faster-rcnn/caffe-fast-rcnn/python
WARNING: Logging before InitGoogleLogging() is written to STDERR
I0512 10:12:01.285598 45832 net.cpp:49] Initializing net from parameters: 
name: "VGG_CNN_M_1024"
input: "data"
input: "im_info"
state {
  phase: TEST
}
input_shape {
  dim: 1
  dim: 3
  dim: 224
  dim: 224
}
input_shape {
  dim: 1
  dim: 3
}
layer {
  name: "conv1"
  type: "Convolution"
  bottom: "data"
  top: "conv1"
  convolution_param {
    num_output: 96
    kernel_size: 7
    stride: 2
  }
}
layer {
  name: "relu1"
  type: "ReLU"
  bottom: "conv1"
  top: "conv1"
}
layer {
  name: "norm1"
  type: "LRN"
  bottom: "conv1"
  top: "norm1"
  lrn_param {
    local_size: 5
    alpha: 0.0005
    beta: 0.75
    k: 2
  }
}
layer {
  name: "pool1"
  type: "Pooling"
  bottom: "norm1"
  top: "pool1"
  pooling_param {
    pool: MAX
    kernel_size: 3
    stride: 2
  }
}
layer {
  name: "conv2"
  type: "Convolution"
  bottom: "pool1"
  top: "conv2"
  convolution_param {
    num_output: 256
    pad: 1
    kernel_size: 5
    stride: 2
  }
}
layer {
  name: "relu2"
  type: "ReLU"
  bottom: "conv2"
  top: "conv2"
}
layer {
  name: "norm2"
  type: "LRN"
  bottom: "conv2"
  top: "norm2"
  lrn_param {
    local_size: 5
    alpha: 0.0005
    beta: 0.75
    k: 2
  }
}
layer {
  name: "pool2"
  type: "Pooling"
  bottom: "norm2"
  top: "pool2"
  pooling_param {
    pool: MAX
    kernel_size: 3
    stride: 2
  }
}
layer {
  name: "conv3"
  type: "Convolution"
  bottom: "pool2"
  top: "conv3"
  convolution_param {
    num_output: 512
    pad: 1
    kernel_size: 3
  }
}
layer {
  name: "relu3"
  type: "ReLU"
  bottom: "conv3"
  top: "conv3"
}
layer {
  name: "conv4"
  type: "Convolution"
  bottom: "conv3"
  top: "conv4"
  convolution_param {
    num_output: 512
    pad: 1
    kernel_size: 3
  }
}
layer {
  name: "relu4"
  type: "ReLU"
  bottom: "conv4"
  top: "conv4"
}
layer {
  name: "conv5"
  type: "Convolution"
  bottom: "conv4"
  top: "conv5"
  convolution_param {
    num_output: 512
    pad: 1
    kernel_size: 3
  }
}
layer {
  name: "relu5"
  type: "ReLU"
  bottom: "conv5"
  top: "conv5"
}
layer {
  name: "rpn_conv/3x3"
  type: "Convolution"
  bottom: "conv5"
  top: "rpn/output"
  convolution_param {
    num_output: 256
    pad: 1
    kernel_size: 3
    stride: 1
  }
}
layer {
  name: "rpn_relu/3x3"
  type: "ReLU"
  bottom: "rpn/output"
  top: "rpn/output"
}
layer {
  name: "rpn_cls_score"
  type: "Convolution"
  bottom: "rpn/output"
  top: "rpn_cls_score"
  convolution_param {
    num_output: 18
    pad: 0
    kernel_size: 1
    stride: 1
  }
}
layer {
  name: "rpn_bbox_pred"
  type: "Convolution"
  bottom: "rpn/output"
  top: "rpn_bbox_pred"
  convolution_param {
    num_output: 36
    pad: 0
    kernel_size: 1
    stride: 1
  }
}
layer {
  name: "rpn_cls_score_reshape"
  type: "Reshape"
  bottom: "rpn_cls_score"
  top: "rpn_cls_score_reshape"
  reshape_param {
    shape {
      dim: 0
      dim: 2
      dim: -1
      dim: 0
    }
  }
}
layer {
  name: "rpn_cls_prob"
  type: "Softmax"
  bottom: "rpn_cls_score_reshape"
  top: "rpn_cls_prob"
}
layer {
  name: "rpn_cls_prob_reshape"
  type: "Reshape"
  bottom: "rpn_cls_prob"
  top: "rpn_cls_prob_reshape"
  reshape_param {
    shape {
      dim: 0
      dim: 18
      dim: -1
      dim: 0
    }
  }
}
layer {
  name: "proposal"
  type: "Python"
  bottom: "rpn_cls_prob_reshape"
  bottom: "rpn_bbox_pred"
  bottom: "im_info"
  top: "rois"
  python_param {
    module: "rpn.proposal_layer"
    layer: "ProposalLayer"
    param_str: "\'feat_stride\': 16"
  }
}
layer {
  name: "roi_pool5"
  type: "ROIPooling"
  bottom: "conv5"
  bottom: "rois"
  top: "pool5"
  roi_pooling_param {
    pooled_h: 6
    pooled_w: 6
    spatial_scale: 0.0625
  }
}
layer {
  name: "fc6"
  type: "InnerProduct"
  bottom: "pool5"
  top: "fc6"
  inner_product_param {
    num_output: 4096
  }
}
layer {
  name: "relu6"
  type: "ReLU"
  bottom: "fc6"
  top: "fc6"
}
layer {
  name: "fc7"
  type: "InnerProduct"
  bottom: "fc6"
  top: "fc7"
  inner_product_param {
    num_output: 1024
  }
}
layer {
  name: "relu7"
  type: "ReLU"
  bottom: "fc7"
  top: "fc7"
}
layer {
  name: "cls_score"
  type: "InnerProduct"
  bottom: "fc7"
  top: "cls_score"
  inner_product_param {
    num_output: 2
  }
}
layer {
  name: "bbox_pred"
  type: "InnerProduct"
  bottom: "fc7"
  top: "bbox_pred"
  inner_product_param {
    num_output: 8
  }
}
layer {
  name: "cls_prob"
  type: "Softmax"
  bottom: "cls_score"
  top: "cls_prob"
}
I0512 10:12:01.285907 45832 net.cpp:413] Input 0 -> data
I0512 10:12:01.723364 45832 net.cpp:413] Input 1 -> im_info
I0512 10:12:01.723456 45832 layer_factory.hpp:77] Creating layer conv1
I0512 10:12:01.723490 45832 net.cpp:106] Creating Layer conv1
I0512 10:12:01.723498 45832 net.cpp:454] conv1 <- data
I0512 10:12:01.723513 45832 net.cpp:411] conv1 -> conv1
I0512 10:12:01.950676 45832 net.cpp:150] Setting up conv1
I0512 10:12:01.950776 45832 net.cpp:157] Top shape: 1 96 109 109 (1140576)
I0512 10:12:01.950790 45832 net.cpp:165] Memory required for data: 4562304
I0512 10:12:01.950824 45832 layer_factory.hpp:77] Creating layer relu1
I0512 10:12:01.950856 45832 net.cpp:106] Creating Layer relu1
I0512 10:12:01.950867 45832 net.cpp:454] relu1 <- conv1
I0512 10:12:01.950881 45832 net.cpp:397] relu1 -> conv1 (in-place)
I0512 10:12:01.951220 45832 net.cpp:150] Setting up relu1
I0512 10:12:01.951246 45832 net.cpp:157] Top shape: 1 96 109 109 (1140576)
I0512 10:12:01.951253 45832 net.cpp:165] Memory required for data: 9124608
I0512 10:12:01.951261 45832 layer_factory.hpp:77] Creating layer norm1
I0512 10:12:01.951280 45832 net.cpp:106] Creating Layer norm1
I0512 10:12:01.951305 45832 net.cpp:454] norm1 <- conv1
I0512 10:12:01.951318 45832 net.cpp:411] norm1 -> norm1
I0512 10:12:01.951532 45832 net.cpp:150] Setting up norm1
I0512 10:12:01.951555 45832 net.cpp:157] Top shape: 1 96 109 109 (1140576)
I0512 10:12:01.951563 45832 net.cpp:165] Memory required for data: 13686912
I0512 10:12:01.951572 45832 layer_factory.hpp:77] Creating layer pool1
I0512 10:12:01.951587 45832 net.cpp:106] Creating Layer pool1
I0512 10:12:01.951598 45832 net.cpp:454] pool1 <- norm1
I0512 10:12:01.951611 45832 net.cpp:411] pool1 -> pool1
I0512 10:12:01.951663 45832 net.cpp:150] Setting up pool1
I0512 10:12:01.951679 45832 net.cpp:157] Top shape: 1 96 54 54 (279936)
I0512 10:12:01.951689 45832 net.cpp:165] Memory required for data: 14806656
I0512 10:12:01.951699 45832 layer_factory.hpp:77] Creating layer conv2
I0512 10:12:01.951715 45832 net.cpp:106] Creating Layer conv2
I0512 10:12:01.951726 45832 net.cpp:454] conv2 <- pool1
I0512 10:12:01.951738 45832 net.cpp:411] conv2 -> conv2
I0512 10:12:01.955279 45832 net.cpp:150] Setting up conv2
I0512 10:12:01.955322 45832 net.cpp:157] Top shape: 1 256 26 26 (173056)
I0512 10:12:01.955333 45832 net.cpp:165] Memory required for data: 15498880
I0512 10:12:01.955350 45832 layer_factory.hpp:77] Creating layer relu2
I0512 10:12:01.955365 45832 net.cpp:106] Creating Layer relu2
I0512 10:12:01.955375 45832 net.cpp:454] relu2 <- conv2
I0512 10:12:01.955387 45832 net.cpp:397] relu2 -> conv2 (in-place)
I0512 10:12:01.955740 45832 net.cpp:150] Setting up relu2
I0512 10:12:01.955765 45832 net.cpp:157] Top shape: 1 256 26 26 (173056)
I0512 10:12:01.955772 45832 net.cpp:165] Memory required for data: 16191104
I0512 10:12:01.955780 45832 layer_factory.hpp:77] Creating layer norm2
I0512 10:12:01.955802 45832 net.cpp:106] Creating Layer norm2
I0512 10:12:01.955811 45832 net.cpp:454] norm2 <- conv2
I0512 10:12:01.955823 45832 net.cpp:411] norm2 -> norm2
I0512 10:12:01.956017 45832 net.cpp:150] Setting up norm2
I0512 10:12:01.956037 45832 net.cpp:157] Top shape: 1 256 26 26 (173056)
I0512 10:12:01.956048 45832 net.cpp:165] Memory required for data: 16883328
I0512 10:12:01.956058 45832 layer_factory.hpp:77] Creating layer pool2
I0512 10:12:01.956071 45832 net.cpp:106] Creating Layer pool2
I0512 10:12:01.956081 45832 net.cpp:454] pool2 <- norm2
I0512 10:12:01.956094 45832 net.cpp:411] pool2 -> pool2
I0512 10:12:01.956147 45832 net.cpp:150] Setting up pool2
I0512 10:12:01.956166 45832 net.cpp:157] Top shape: 1 256 13 13 (43264)
I0512 10:12:01.956173 45832 net.cpp:165] Memory required for data: 17056384
I0512 10:12:01.956181 45832 layer_factory.hpp:77] Creating layer conv3
I0512 10:12:01.956197 45832 net.cpp:106] Creating Layer conv3
I0512 10:12:01.956207 45832 net.cpp:454] conv3 <- pool2
I0512 10:12:01.956218 45832 net.cpp:411] conv3 -> conv3
I0512 10:12:01.960305 45832 net.cpp:150] Setting up conv3
I0512 10:12:01.960376 45832 net.cpp:157] Top shape: 1 512 13 13 (86528)
I0512 10:12:01.960386 45832 net.cpp:165] Memory required for data: 17402496
I0512 10:12:01.960405 45832 layer_factory.hpp:77] Creating layer relu3
I0512 10:12:01.960423 45832 net.cpp:106] Creating Layer relu3
I0512 10:12:01.960438 45832 net.cpp:454] relu3 <- conv3
I0512 10:12:01.960451 45832 net.cpp:397] relu3 -> conv3 (in-place)
I0512 10:12:01.960786 45832 net.cpp:150] Setting up relu3
I0512 10:12:01.960811 45832 net.cpp:157] Top shape: 1 512 13 13 (86528)
I0512 10:12:01.960820 45832 net.cpp:165] Memory required for data: 17748608
I0512 10:12:01.960827 45832 layer_factory.hpp:77] Creating layer conv4
I0512 10:12:01.960844 45832 net.cpp:106] Creating Layer conv4
I0512 10:12:01.960855 45832 net.cpp:454] conv4 <- conv3
I0512 10:12:01.960870 45832 net.cpp:411] conv4 -> conv4
I0512 10:12:01.967686 45832 net.cpp:150] Setting up conv4
I0512 10:12:01.967777 45832 net.cpp:157] Top shape: 1 512 13 13 (86528)
I0512 10:12:01.967789 45832 net.cpp:165] Memory required for data: 18094720
I0512 10:12:01.967805 45832 layer_factory.hpp:77] Creating layer relu4
I0512 10:12:01.967823 45832 net.cpp:106] Creating Layer relu4
I0512 10:12:01.967834 45832 net.cpp:454] relu4 <- conv4
I0512 10:12:01.967859 45832 net.cpp:397] relu4 -> conv4 (in-place)
I0512 10:12:01.968199 45832 net.cpp:150] Setting up relu4
I0512 10:12:01.968222 45832 net.cpp:157] Top shape: 1 512 13 13 (86528)
I0512 10:12:01.968230 45832 net.cpp:165] Memory required for data: 18440832
I0512 10:12:01.968248 45832 layer_factory.hpp:77] Creating layer conv5
I0512 10:12:01.968263 45832 net.cpp:106] Creating Layer conv5
I0512 10:12:01.968273 45832 net.cpp:454] conv5 <- conv4
I0512 10:12:01.968286 45832 net.cpp:411] conv5 -> conv5
I0512 10:12:01.975412 45832 net.cpp:150] Setting up conv5
I0512 10:12:01.975517 45832 net.cpp:157] Top shape: 1 512 13 13 (86528)
I0512 10:12:01.975528 45832 net.cpp:165] Memory required for data: 18786944
I0512 10:12:01.975553 45832 layer_factory.hpp:77] Creating layer relu5
I0512 10:12:01.975571 45832 net.cpp:106] Creating Layer relu5
I0512 10:12:01.975584 45832 net.cpp:454] relu5 <- conv5
I0512 10:12:01.975600 45832 net.cpp:397] relu5 -> conv5 (in-place)
I0512 10:12:01.975777 45832 net.cpp:150] Setting up relu5
I0512 10:12:01.975797 45832 net.cpp:157] Top shape: 1 512 13 13 (86528)
I0512 10:12:01.975807 45832 net.cpp:165] Memory required for data: 19133056
I0512 10:12:01.975817 45832 layer_factory.hpp:77] Creating layer conv5_relu5_0_split
I0512 10:12:01.975837 45832 net.cpp:106] Creating Layer conv5_relu5_0_split
I0512 10:12:01.975848 45832 net.cpp:454] conv5_relu5_0_split <- conv5
I0512 10:12:01.975862 45832 net.cpp:411] conv5_relu5_0_split -> conv5_relu5_0_split_0
I0512 10:12:01.975875 45832 net.cpp:411] conv5_relu5_0_split -> conv5_relu5_0_split_1
I0512 10:12:01.975925 45832 net.cpp:150] Setting up conv5_relu5_0_split
I0512 10:12:01.975940 45832 net.cpp:157] Top shape: 1 512 13 13 (86528)
I0512 10:12:01.975951 45832 net.cpp:157] Top shape: 1 512 13 13 (86528)
I0512 10:12:01.975961 45832 net.cpp:165] Memory required for data: 19825280
I0512 10:12:01.975970 45832 layer_factory.hpp:77] Creating layer rpn_conv/3x3
I0512 10:12:01.975986 45832 net.cpp:106] Creating Layer rpn_conv/3x3
I0512 10:12:01.975997 45832 net.cpp:454] rpn_conv/3x3 <- conv5_relu5_0_split_0
I0512 10:12:01.976009 45832 net.cpp:411] rpn_conv/3x3 -> rpn/output
I0512 10:12:01.981806 45832 net.cpp:150] Setting up rpn_conv/3x3
I0512 10:12:01.981896 45832 net.cpp:157] Top shape: 1 256 13 13 (43264)
I0512 10:12:01.981909 45832 net.cpp:165] Memory required for data: 19998336
I0512 10:12:01.981937 45832 layer_factory.hpp:77] Creating layer rpn_relu/3x3
I0512 10:12:01.981971 45832 net.cpp:106] Creating Layer rpn_relu/3x3
I0512 10:12:01.981984 45832 net.cpp:454] rpn_relu/3x3 <- rpn/output
I0512 10:12:01.981998 45832 net.cpp:397] rpn_relu/3x3 -> rpn/output (in-place)
I0512 10:12:01.982708 45832 net.cpp:150] Setting up rpn_relu/3x3
I0512 10:12:01.982741 45832 net.cpp:157] Top shape: 1 256 13 13 (43264)
I0512 10:12:01.982750 45832 net.cpp:165] Memory required for data: 20171392
I0512 10:12:01.982760 45832 layer_factory.hpp:77] Creating layer rpn/output_rpn_relu/3x3_0_split
I0512 10:12:01.982775 45832 net.cpp:106] Creating Layer rpn/output_rpn_relu/3x3_0_split
I0512 10:12:01.982785 45832 net.cpp:454] rpn/output_rpn_relu/3x3_0_split <- rpn/output
I0512 10:12:01.982797 45832 net.cpp:411] rpn/output_rpn_relu/3x3_0_split -> rpn/output_rpn_relu/3x3_0_split_0
I0512 10:12:01.982812 45832 net.cpp:411] rpn/output_rpn_relu/3x3_0_split -> rpn/output_rpn_relu/3x3_0_split_1
I0512 10:12:01.982869 45832 net.cpp:150] Setting up rpn/output_rpn_relu/3x3_0_split
I0512 10:12:01.982884 45832 net.cpp:157] Top shape: 1 256 13 13 (43264)
I0512 10:12:01.982895 45832 net.cpp:157] Top shape: 1 256 13 13 (43264)
I0512 10:12:01.982905 45832 net.cpp:165] Memory required for data: 20517504
I0512 10:12:01.982914 45832 layer_factory.hpp:77] Creating layer rpn_cls_score
I0512 10:12:01.982931 45832 net.cpp:106] Creating Layer rpn_cls_score
I0512 10:12:01.982940 45832 net.cpp:454] rpn_cls_score <- rpn/output_rpn_relu/3x3_0_split_0
I0512 10:12:01.982952 45832 net.cpp:411] rpn_cls_score -> rpn_cls_score
I0512 10:12:01.983891 45832 net.cpp:150] Setting up rpn_cls_score
I0512 10:12:01.983918 45832 net.cpp:157] Top shape: 1 18 13 13 (3042)
I0512 10:12:01.983929 45832 net.cpp:165] Memory required for data: 20529672
I0512 10:12:01.983942 45832 layer_factory.hpp:77] Creating layer rpn_bbox_pred
I0512 10:12:01.983958 45832 net.cpp:106] Creating Layer rpn_bbox_pred
I0512 10:12:01.983969 45832 net.cpp:454] rpn_bbox_pred <- rpn/output_rpn_relu/3x3_0_split_1
I0512 10:12:01.983981 45832 net.cpp:411] rpn_bbox_pred -> rpn_bbox_pred
I0512 10:12:01.985080 45832 net.cpp:150] Setting up rpn_bbox_pred
I0512 10:12:01.985111 45832 net.cpp:157] Top shape: 1 36 13 13 (6084)
I0512 10:12:01.985122 45832 net.cpp:165] Memory required for data: 20554008
I0512 10:12:01.985136 45832 layer_factory.hpp:77] Creating layer rpn_cls_score_reshape
I0512 10:12:01.985157 45832 net.cpp:106] Creating Layer rpn_cls_score_reshape
I0512 10:12:01.985168 45832 net.cpp:454] rpn_cls_score_reshape <- rpn_cls_score
I0512 10:12:01.985179 45832 net.cpp:411] rpn_cls_score_reshape -> rpn_cls_score_reshape
I0512 10:12:01.985230 45832 net.cpp:150] Setting up rpn_cls_score_reshape
I0512 10:12:01.985246 45832 net.cpp:157] Top shape: 1 2 117 13 (3042)
I0512 10:12:01.985256 45832 net.cpp:165] Memory required for data: 20566176
I0512 10:12:01.985266 45832 layer_factory.hpp:77] Creating layer rpn_cls_prob
I0512 10:12:01.985280 45832 net.cpp:106] Creating Layer rpn_cls_prob
I0512 10:12:01.985291 45832 net.cpp:454] rpn_cls_prob <- rpn_cls_score_reshape
I0512 10:12:01.985301 45832 net.cpp:411] rpn_cls_prob -> rpn_cls_prob
I0512 10:12:01.985718 45832 net.cpp:150] Setting up rpn_cls_prob
I0512 10:12:01.985744 45832 net.cpp:157] Top shape: 1 2 117 13 (3042)
I0512 10:12:01.985754 45832 net.cpp:165] Memory required for data: 20578344
I0512 10:12:01.985766 45832 layer_factory.hpp:77] Creating layer rpn_cls_prob_reshape
I0512 10:12:01.985786 45832 net.cpp:106] Creating Layer rpn_cls_prob_reshape
I0512 10:12:01.985797 45832 net.cpp:454] rpn_cls_prob_reshape <- rpn_cls_prob
I0512 10:12:01.985810 45832 net.cpp:411] rpn_cls_prob_reshape -> rpn_cls_prob_reshape
I0512 10:12:01.985848 45832 net.cpp:150] Setting up rpn_cls_prob_reshape
I0512 10:12:01.985862 45832 net.cpp:157] Top shape: 1 18 13 13 (3042)
I0512 10:12:01.985872 45832 net.cpp:165] Memory required for data: 20590512
I0512 10:12:01.985882 45832 layer_factory.hpp:77] Creating layer proposal
I0512 10:12:03.752977 45832 net.cpp:106] Creating Layer proposal
I0512 10:12:03.753072 45832 net.cpp:454] proposal <- rpn_cls_prob_reshape
I0512 10:12:03.753087 45832 net.cpp:454] proposal <- rpn_bbox_pred
I0512 10:12:03.753098 45832 net.cpp:454] proposal <- im_info
I0512 10:12:03.753113 45832 net.cpp:411] proposal -> rois
I0512 10:12:03.754300 45832 net.cpp:150] Setting up proposal
I0512 10:12:03.754354 45832 net.cpp:157] Top shape: 1 5 (5)
I0512 10:12:03.754365 45832 net.cpp:165] Memory required for data: 20590532
I0512 10:12:03.754379 45832 layer_factory.hpp:77] Creating layer roi_pool5
I0512 10:12:03.754402 45832 net.cpp:106] Creating Layer roi_pool5
I0512 10:12:03.754415 45832 net.cpp:454] roi_pool5 <- conv5_relu5_0_split_1
I0512 10:12:03.754426 45832 net.cpp:454] roi_pool5 <- rois
I0512 10:12:03.754444 45832 net.cpp:411] roi_pool5 -> pool5
I0512 10:12:03.754464 45832 roi_pooling_layer.cpp:30] Spatial scale: 0.0625
I0512 10:12:03.754566 45832 net.cpp:150] Setting up roi_pool5
I0512 10:12:03.754586 45832 net.cpp:157] Top shape: 1 512 6 6 (18432)
I0512 10:12:03.754596 45832 net.cpp:165] Memory required for data: 20664260
I0512 10:12:03.754606 45832 layer_factory.hpp:77] Creating layer fc6
I0512 10:12:03.754623 45832 net.cpp:106] Creating Layer fc6
I0512 10:12:03.754636 45832 net.cpp:454] fc6 <- pool5
I0512 10:12:03.754647 45832 net.cpp:411] fc6 -> fc6
I0512 10:12:03.925945 45832 net.cpp:150] Setting up fc6
I0512 10:12:03.926028 45832 net.cpp:157] Top shape: 1 4096 (4096)
I0512 10:12:03.926040 45832 net.cpp:165] Memory required for data: 20680644
I0512 10:12:03.926066 45832 layer_factory.hpp:77] Creating layer relu6
I0512 10:12:03.926084 45832 net.cpp:106] Creating Layer relu6
I0512 10:12:03.926098 45832 net.cpp:454] relu6 <- fc6
I0512 10:12:03.926112 45832 net.cpp:397] relu6 -> fc6 (in-place)
I0512 10:12:03.926424 45832 net.cpp:150] Setting up relu6
I0512 10:12:03.926446 45832 net.cpp:157] Top shape: 1 4096 (4096)
I0512 10:12:03.926455 45832 net.cpp:165] Memory required for data: 20697028
I0512 10:12:03.926462 45832 layer_factory.hpp:77] Creating layer fc7
I0512 10:12:03.926475 45832 net.cpp:106] Creating Layer fc7
I0512 10:12:03.926483 45832 net.cpp:454] fc7 <- fc6
I0512 10:12:03.926496 45832 net.cpp:411] fc7 -> fc7
I0512 10:12:03.936657 45832 net.cpp:150] Setting up fc7
I0512 10:12:03.936754 45832 net.cpp:157] Top shape: 1 1024 (1024)
I0512 10:12:03.936765 45832 net.cpp:165] Memory required for data: 20701124
I0512 10:12:03.936781 45832 layer_factory.hpp:77] Creating layer relu7
I0512 10:12:03.936800 45832 net.cpp:106] Creating Layer relu7
I0512 10:12:03.936812 45832 net.cpp:454] relu7 <- fc7
I0512 10:12:03.936828 45832 net.cpp:397] relu7 -> fc7 (in-place)
I0512 10:12:03.937377 45832 net.cpp:150] Setting up relu7
I0512 10:12:03.937412 45832 net.cpp:157] Top shape: 1 1024 (1024)
I0512 10:12:03.937420 45832 net.cpp:165] Memory required for data: 20705220
I0512 10:12:03.937428 45832 layer_factory.hpp:77] Creating layer fc7_relu7_0_split
I0512 10:12:03.937440 45832 net.cpp:106] Creating Layer fc7_relu7_0_split
I0512 10:12:03.937449 45832 net.cpp:454] fc7_relu7_0_split <- fc7
I0512 10:12:03.937461 45832 net.cpp:411] fc7_relu7_0_split -> fc7_relu7_0_split_0
I0512 10:12:03.937477 45832 net.cpp:411] fc7_relu7_0_split -> fc7_relu7_0_split_1
I0512 10:12:03.937537 45832 net.cpp:150] Setting up fc7_relu7_0_split
I0512 10:12:03.937553 45832 net.cpp:157] Top shape: 1 1024 (1024)
I0512 10:12:03.937575 45832 net.cpp:157] Top shape: 1 1024 (1024)
I0512 10:12:03.937587 45832 net.cpp:165] Memory required for data: 20713412
I0512 10:12:03.937597 45832 layer_factory.hpp:77] Creating layer cls_score
I0512 10:12:03.937613 45832 net.cpp:106] Creating Layer cls_score
I0512 10:12:03.937623 45832 net.cpp:454] cls_score <- fc7_relu7_0_split_0
I0512 10:12:03.937641 45832 net.cpp:411] cls_score -> cls_score
I0512 10:12:03.937779 45832 net.cpp:150] Setting up cls_score
I0512 10:12:03.937799 45832 net.cpp:157] Top shape: 1 2 (2)
I0512 10:12:03.937808 45832 net.cpp:165] Memory required for data: 20713420
I0512 10:12:03.937822 45832 layer_factory.hpp:77] Creating layer bbox_pred
I0512 10:12:03.937846 45832 net.cpp:106] Creating Layer bbox_pred
I0512 10:12:03.937860 45832 net.cpp:454] bbox_pred <- fc7_relu7_0_split_1
I0512 10:12:03.937875 45832 net.cpp:411] bbox_pred -> bbox_pred
I0512 10:12:03.938024 45832 net.cpp:150] Setting up bbox_pred
I0512 10:12:03.938045 45832 net.cpp:157] Top shape: 1 8 (8)
I0512 10:12:03.938055 45832 net.cpp:165] Memory required for data: 20713452
I0512 10:12:03.938066 45832 layer_factory.hpp:77] Creating layer cls_prob
I0512 10:12:03.938087 45832 net.cpp:106] Creating Layer cls_prob
I0512 10:12:03.938098 45832 net.cpp:454] cls_prob <- cls_score
I0512 10:12:03.938112 45832 net.cpp:411] cls_prob -> cls_prob
I0512 10:12:03.938459 45832 net.cpp:150] Setting up cls_prob
I0512 10:12:03.938484 45832 net.cpp:157] Top shape: 1 2 (2)
I0512 10:12:03.938493 45832 net.cpp:165] Memory required for data: 20713460
I0512 10:12:03.938500 45832 net.cpp:228] cls_prob does not need backward computation.
I0512 10:12:03.938508 45832 net.cpp:228] bbox_pred does not need backward computation.
I0512 10:12:03.938514 45832 net.cpp:228] cls_score does not need backward computation.
I0512 10:12:03.938524 45832 net.cpp:228] fc7_relu7_0_split does not need backward computation.
…
