/opt/rh/devtoolset-3/root/usr/lib64/python2.6/site-packages:/opt/rh/devtoolset-3/root/usr/lib/python2.6/site-packages:/home/lyh1/workspace/py-faster-rcnn/lib:/home/lyh1/workspace/py-faster-rcnn/caffe-fast-rcnn/python
WARNING: Logging before InitGoogleLogging() is written to STDERR
I0512 10:09:05.321498 44707 net.cpp:49] Initializing net from parameters: 
name: "VGG_CNN_M_1024"
input: "data"
input: "im_info"
state {
  phase: TEST
}
input_shape {
  dim: 1
  dim: 3
  dim: 224
  dim: 224
}
input_shape {
  dim: 1
  dim: 3
}
layer {
  name: "conv1"
  type: "Convolution"
  bottom: "data"
  top: "conv1"
  convolution_param {
    num_output: 96
    kernel_size: 7
    stride: 2
  }
}
layer {
  name: "relu1"
  type: "ReLU"
  bottom: "conv1"
  top: "conv1"
}
layer {
  name: "norm1"
  type: "LRN"
  bottom: "conv1"
  top: "norm1"
  lrn_param {
    local_size: 5
    alpha: 0.0005
    beta: 0.75
    k: 2
  }
}
layer {
  name: "pool1"
  type: "Pooling"
  bottom: "norm1"
  top: "pool1"
  pooling_param {
    pool: MAX
    kernel_size: 3
    stride: 2
  }
}
layer {
  name: "conv2"
  type: "Convolution"
  bottom: "pool1"
  top: "conv2"
  convolution_param {
    num_output: 256
    pad: 1
    kernel_size: 5
    stride: 2
  }
}
layer {
  name: "relu2"
  type: "ReLU"
  bottom: "conv2"
  top: "conv2"
}
layer {
  name: "norm2"
  type: "LRN"
  bottom: "conv2"
  top: "norm2"
  lrn_param {
    local_size: 5
    alpha: 0.0005
    beta: 0.75
    k: 2
  }
}
layer {
  name: "pool2"
  type: "Pooling"
  bottom: "norm2"
  top: "pool2"
  pooling_param {
    pool: MAX
    kernel_size: 3
    stride: 2
  }
}
layer {
  name: "conv3"
  type: "Convolution"
  bottom: "pool2"
  top: "conv3"
  convolution_param {
    num_output: 512
    pad: 1
    kernel_size: 3
  }
}
layer {
  name: "relu3"
  type: "ReLU"
  bottom: "conv3"
  top: "conv3"
}
layer {
  name: "conv4"
  type: "Convolution"
  bottom: "conv3"
  top: "conv4"
  convolution_param {
    num_output: 512
    pad: 1
    kernel_size: 3
  }
}
layer {
  name: "relu4"
  type: "ReLU"
  bottom: "conv4"
  top: "conv4"
}
layer {
  name: "conv5"
  type: "Convolution"
  bottom: "conv4"
  top: "conv5"
  convolution_param {
    num_output: 512
    pad: 1
    kernel_size: 3
  }
}
layer {
  name: "relu5"
  type: "ReLU"
  bottom: "conv5"
  top: "conv5"
}
layer {
  name: "rpn_conv/3x3"
  type: "Convolution"
  bottom: "conv5"
  top: "rpn/output"
  convolution_param {
    num_output: 256
    pad: 1
    kernel_size: 3
    stride: 1
  }
}
layer {
  name: "rpn_relu/3x3"
  type: "ReLU"
  bottom: "rpn/output"
  top: "rpn/output"
}
layer {
  name: "rpn_cls_score"
  type: "Convolution"
  bottom: "rpn/output"
  top: "rpn_cls_score"
  convolution_param {
    num_output: 18
    pad: 0
    kernel_size: 1
    stride: 1
  }
}
layer {
  name: "rpn_bbox_pred"
  type: "Convolution"
  bottom: "rpn/output"
  top: "rpn_bbox_pred"
  convolution_param {
    num_output: 36
    pad: 0
    kernel_size: 1
    stride: 1
  }
}
layer {
  name: "rpn_cls_score_reshape"
  type: "Reshape"
  bottom: "rpn_cls_score"
  top: "rpn_cls_score_reshape"
  reshape_param {
    shape {
      dim: 0
      dim: 2
      dim: -1
      dim: 0
    }
  }
}
layer {
  name: "rpn_cls_prob"
  type: "Softmax"
  bottom: "rpn_cls_score_reshape"
  top: "rpn_cls_prob"
}
layer {
  name: "rpn_cls_prob_reshape"
  type: "Reshape"
  bottom: "rpn_cls_prob"
  top: "rpn_cls_prob_reshape"
  reshape_param {
    shape {
      dim: 0
      dim: 18
      dim: -1
      dim: 0
    }
  }
}
layer {
  name: "proposal"
  type: "Python"
  bottom: "rpn_cls_prob_reshape"
  bottom: "rpn_bbox_pred"
  bottom: "im_info"
  top: "rois"
  python_param {
    module: "rpn.proposal_layer"
    layer: "ProposalLayer"
    param_str: "\'feat_stride\': 16"
  }
}
layer {
  name: "roi_pool5"
  type: "ROIPooling"
  bottom: "conv5"
  bottom: "rois"
  top: "pool5"
  roi_pooling_param {
    pooled_h: 6
    pooled_w: 6
    spatial_scale: 0.0625
  }
}
layer {
  name: "fc6"
  type: "InnerProduct"
  bottom: "pool5"
  top: "fc6"
  inner_product_param {
    num_output: 4096
  }
}
layer {
  name: "relu6"
  type: "ReLU"
  bottom: "fc6"
  top: "fc6"
}
layer {
  name: "fc7"
  type: "InnerProduct"
  bottom: "fc6"
  top: "fc7"
  inner_product_param {
    num_output: 1024
  }
}
layer {
  name: "relu7"
  type: "ReLU"
  bottom: "fc7"
  top: "fc7"
}
layer {
  name: "cls_score"
  type: "InnerProduct"
  bottom: "fc7"
  top: "cls_score"
  inner_product_param {
    num_output: 2
  }
}
layer {
  name: "bbox_pred"
  type: "InnerProduct"
  bottom: "fc7"
  top: "bbox_pred"
  inner_product_param {
    num_output: 8
  }
}
layer {
  name: "cls_prob"
  type: "Softmax"
  bottom: "cls_score"
  top: "cls_prob"
}
I0512 10:09:05.321807 44707 net.cpp:413] Input 0 -> data
I0512 10:09:05.760325 44707 net.cpp:413] Input 1 -> im_info
I0512 10:09:05.760401 44707 layer_factory.hpp:77] Creating layer conv1
I0512 10:09:05.760437 44707 net.cpp:106] Creating Layer conv1
I0512 10:09:05.760444 44707 net.cpp:454] conv1 <- data
I0512 10:09:05.760458 44707 net.cpp:411] conv1 -> conv1
I0512 10:09:05.945758 44707 net.cpp:150] Setting up conv1
I0512 10:09:05.945812 44707 net.cpp:157] Top shape: 1 96 109 109 (1140576)
I0512 10:09:05.945818 44707 net.cpp:165] Memory required for data: 4562304
I0512 10:09:05.945847 44707 layer_factory.hpp:77] Creating layer relu1
I0512 10:09:05.945863 44707 net.cpp:106] Creating Layer relu1
I0512 10:09:05.945868 44707 net.cpp:454] relu1 <- conv1
I0512 10:09:05.945875 44707 net.cpp:397] relu1 -> conv1 (in-place)
I0512 10:09:05.946214 44707 net.cpp:150] Setting up relu1
I0512 10:09:05.946230 44707 net.cpp:157] Top shape: 1 96 109 109 (1140576)
I0512 10:09:05.946235 44707 net.cpp:165] Memory required for data: 9124608
I0512 10:09:05.946239 44707 layer_factory.hpp:77] Creating layer norm1
I0512 10:09:05.946254 44707 net.cpp:106] Creating Layer norm1
I0512 10:09:05.946259 44707 net.cpp:454] norm1 <- conv1
I0512 10:09:05.946265 44707 net.cpp:411] norm1 -> norm1
I0512 10:09:05.946467 44707 net.cpp:150] Setting up norm1
I0512 10:09:05.946481 44707 net.cpp:157] Top shape: 1 96 109 109 (1140576)
I0512 10:09:05.946485 44707 net.cpp:165] Memory required for data: 13686912
I0512 10:09:05.946490 44707 layer_factory.hpp:77] Creating layer pool1
I0512 10:09:05.946499 44707 net.cpp:106] Creating Layer pool1
I0512 10:09:05.946503 44707 net.cpp:454] pool1 <- norm1
I0512 10:09:05.946511 44707 net.cpp:411] pool1 -> pool1
I0512 10:09:05.946557 44707 net.cpp:150] Setting up pool1
I0512 10:09:05.946566 44707 net.cpp:157] Top shape: 1 96 54 54 (279936)
I0512 10:09:05.946569 44707 net.cpp:165] Memory required for data: 14806656
I0512 10:09:05.946573 44707 layer_factory.hpp:77] Creating layer conv2
I0512 10:09:05.946584 44707 net.cpp:106] Creating Layer conv2
I0512 10:09:05.946588 44707 net.cpp:454] conv2 <- pool1
I0512 10:09:05.946594 44707 net.cpp:411] conv2 -> conv2
I0512 10:09:05.950251 44707 net.cpp:150] Setting up conv2
I0512 10:09:05.950273 44707 net.cpp:157] Top shape: 1 256 26 26 (173056)
I0512 10:09:05.950278 44707 net.cpp:165] Memory required for data: 15498880
I0512 10:09:05.950290 44707 layer_factory.hpp:77] Creating layer relu2
I0512 10:09:05.950299 44707 net.cpp:106] Creating Layer relu2
I0512 10:09:05.950304 44707 net.cpp:454] relu2 <- conv2
I0512 10:09:05.950311 44707 net.cpp:397] relu2 -> conv2 (in-place)
I0512 10:09:05.950665 44707 net.cpp:150] Setting up relu2
I0512 10:09:05.950681 44707 net.cpp:157] Top shape: 1 256 26 26 (173056)
I0512 10:09:05.950685 44707 net.cpp:165] Memory required for data: 16191104
I0512 10:09:05.950690 44707 layer_factory.hpp:77] Creating layer norm2
I0512 10:09:05.950701 44707 net.cpp:106] Creating Layer norm2
I0512 10:09:05.950706 44707 net.cpp:454] norm2 <- conv2
I0512 10:09:05.950712 44707 net.cpp:411] norm2 -> norm2
I0512 10:09:05.950917 44707 net.cpp:150] Setting up norm2
I0512 10:09:05.950928 44707 net.cpp:157] Top shape: 1 256 26 26 (173056)
I0512 10:09:05.950932 44707 net.cpp:165] Memory required for data: 16883328
I0512 10:09:05.950937 44707 layer_factory.hpp:77] Creating layer pool2
I0512 10:09:05.950947 44707 net.cpp:106] Creating Layer pool2
I0512 10:09:05.950950 44707 net.cpp:454] pool2 <- norm2
I0512 10:09:05.950956 44707 net.cpp:411] pool2 -> pool2
I0512 10:09:05.951007 44707 net.cpp:150] Setting up pool2
I0512 10:09:05.951016 44707 net.cpp:157] Top shape: 1 256 13 13 (43264)
I0512 10:09:05.951020 44707 net.cpp:165] Memory required for data: 17056384
I0512 10:09:05.951023 44707 layer_factory.hpp:77] Creating layer conv3
I0512 10:09:05.951035 44707 net.cpp:106] Creating Layer conv3
I0512 10:09:05.951040 44707 net.cpp:454] conv3 <- pool2
I0512 10:09:05.951045 44707 net.cpp:411] conv3 -> conv3
I0512 10:09:05.955165 44707 net.cpp:150] Setting up conv3
I0512 10:09:05.955185 44707 net.cpp:157] Top shape: 1 512 13 13 (86528)
I0512 10:09:05.955189 44707 net.cpp:165] Memory required for data: 17402496
I0512 10:09:05.955204 44707 layer_factory.hpp:77] Creating layer relu3
I0512 10:09:05.955211 44707 net.cpp:106] Creating Layer relu3
I0512 10:09:05.955216 44707 net.cpp:454] relu3 <- conv3
I0512 10:09:05.955222 44707 net.cpp:397] relu3 -> conv3 (in-place)
I0512 10:09:05.955566 44707 net.cpp:150] Setting up relu3
I0512 10:09:05.955582 44707 net.cpp:157] Top shape: 1 512 13 13 (86528)
I0512 10:09:05.955587 44707 net.cpp:165] Memory required for data: 17748608
I0512 10:09:05.955591 44707 layer_factory.hpp:77] Creating layer conv4
I0512 10:09:05.955601 44707 net.cpp:106] Creating Layer conv4
I0512 10:09:05.955606 44707 net.cpp:454] conv4 <- conv3
I0512 10:09:05.955615 44707 net.cpp:411] conv4 -> conv4
I0512 10:09:05.962370 44707 net.cpp:150] Setting up conv4
I0512 10:09:05.962407 44707 net.cpp:157] Top shape: 1 512 13 13 (86528)
I0512 10:09:05.962412 44707 net.cpp:165] Memory required for data: 18094720
I0512 10:09:05.962422 44707 layer_factory.hpp:77] Creating layer relu4
I0512 10:09:05.962438 44707 net.cpp:106] Creating Layer relu4
I0512 10:09:05.962445 44707 net.cpp:454] relu4 <- conv4
I0512 10:09:05.962452 44707 net.cpp:397] relu4 -> conv4 (in-place)
I0512 10:09:05.962796 44707 net.cpp:150] Setting up relu4
I0512 10:09:05.962816 44707 net.cpp:157] Top shape: 1 512 13 13 (86528)
I0512 10:09:05.962821 44707 net.cpp:165] Memory required for data: 18440832
I0512 10:09:05.962826 44707 layer_factory.hpp:77] Creating layer conv5
I0512 10:09:05.962836 44707 net.cpp:106] Creating Layer conv5
I0512 10:09:05.962841 44707 net.cpp:454] conv5 <- conv4
I0512 10:09:05.962848 44707 net.cpp:411] conv5 -> conv5
I0512 10:09:05.969985 44707 net.cpp:150] Setting up conv5
I0512 10:09:05.970028 44707 net.cpp:157] Top shape: 1 512 13 13 (86528)
I0512 10:09:05.970033 44707 net.cpp:165] Memory required for data: 18786944
I0512 10:09:05.970048 44707 layer_factory.hpp:77] Creating layer relu5
I0512 10:09:05.970062 44707 net.cpp:106] Creating Layer relu5
I0512 10:09:05.970069 44707 net.cpp:454] relu5 <- conv5
I0512 10:09:05.970077 44707 net.cpp:397] relu5 -> conv5 (in-place)
I0512 10:09:05.970254 44707 net.cpp:150] Setting up relu5
I0512 10:09:05.970266 44707 net.cpp:157] Top shape: 1 512 13 13 (86528)
I0512 10:09:05.970270 44707 net.cpp:165] Memory required for data: 19133056
I0512 10:09:05.970275 44707 layer_factory.hpp:77] Creating layer conv5_relu5_0_split
I0512 10:09:05.970288 44707 net.cpp:106] Creating Layer conv5_relu5_0_split
I0512 10:09:05.970293 44707 net.cpp:454] conv5_relu5_0_split <- conv5
I0512 10:09:05.970301 44707 net.cpp:411] conv5_relu5_0_split -> conv5_relu5_0_split_0
I0512 10:09:05.970310 44707 net.cpp:411] conv5_relu5_0_split -> conv5_relu5_0_split_1
I0512 10:09:05.970353 44707 net.cpp:150] Setting up conv5_relu5_0_split
I0512 10:09:05.970363 44707 net.cpp:157] Top shape: 1 512 13 13 (86528)
I0512 10:09:05.970368 44707 net.cpp:157] Top shape: 1 512 13 13 (86528)
I0512 10:09:05.970372 44707 net.cpp:165] Memory required for data: 19825280
I0512 10:09:05.970376 44707 layer_factory.hpp:77] Creating layer rpn_conv/3x3
I0512 10:09:05.970387 44707 net.cpp:106] Creating Layer rpn_conv/3x3
I0512 10:09:05.970392 44707 net.cpp:454] rpn_conv/3x3 <- conv5_relu5_0_split_0
I0512 10:09:05.970398 44707 net.cpp:411] rpn_conv/3x3 -> rpn/output
I0512 10:09:05.975198 44707 net.cpp:150] Setting up rpn_conv/3x3
I0512 10:09:05.975232 44707 net.cpp:157] Top shape: 1 256 13 13 (43264)
I0512 10:09:05.975237 44707 net.cpp:165] Memory required for data: 19998336
I0512 10:09:05.975255 44707 layer_factory.hpp:77] Creating layer rpn_relu/3x3
I0512 10:09:05.975270 44707 net.cpp:106] Creating Layer rpn_relu/3x3
I0512 10:09:05.975276 44707 net.cpp:454] rpn_relu/3x3 <- rpn/output
I0512 10:09:05.975283 44707 net.cpp:397] rpn_relu/3x3 -> rpn/output (in-place)
I0512 10:09:05.975980 44707 net.cpp:150] Setting up rpn_relu/3x3
I0512 10:09:05.975997 44707 net.cpp:157] Top shape: 1 256 13 13 (43264)
I0512 10:09:05.976001 44707 net.cpp:165] Memory required for data: 20171392
I0512 10:09:05.976006 44707 layer_factory.hpp:77] Creating layer rpn/output_rpn_relu/3x3_0_split
I0512 10:09:05.976014 44707 net.cpp:106] Creating Layer rpn/output_rpn_relu/3x3_0_split
I0512 10:09:05.976018 44707 net.cpp:454] rpn/output_rpn_relu/3x3_0_split <- rpn/output
I0512 10:09:05.976024 44707 net.cpp:411] rpn/output_rpn_relu/3x3_0_split -> rpn/output_rpn_relu/3x3_0_split_0
I0512 10:09:05.976032 44707 net.cpp:411] rpn/output_rpn_relu/3x3_0_split -> rpn/output_rpn_relu/3x3_0_split_1
I0512 10:09:05.976081 44707 net.cpp:150] Setting up rpn/output_rpn_relu/3x3_0_split
I0512 10:09:05.976089 44707 net.cpp:157] Top shape: 1 256 13 13 (43264)
I0512 10:09:05.976094 44707 net.cpp:157] Top shape: 1 256 13 13 (43264)
I0512 10:09:05.976097 44707 net.cpp:165] Memory required for data: 20517504
I0512 10:09:05.976102 44707 layer_factory.hpp:77] Creating layer rpn_cls_score
I0512 10:09:05.976114 44707 net.cpp:106] Creating Layer rpn_cls_score
I0512 10:09:05.976119 44707 net.cpp:454] rpn_cls_score <- rpn/output_rpn_relu/3x3_0_split_0
I0512 10:09:05.976126 44707 net.cpp:411] rpn_cls_score -> rpn_cls_score
I0512 10:09:05.977108 44707 net.cpp:150] Setting up rpn_cls_score
I0512 10:09:05.977124 44707 net.cpp:157] Top shape: 1 18 13 13 (3042)
I0512 10:09:05.977129 44707 net.cpp:165] Memory required for data: 20529672
I0512 10:09:05.977138 44707 layer_factory.hpp:77] Creating layer rpn_bbox_pred
I0512 10:09:05.977149 44707 net.cpp:106] Creating Layer rpn_bbox_pred
I0512 10:09:05.977154 44707 net.cpp:454] rpn_bbox_pred <- rpn/output_rpn_relu/3x3_0_split_1
I0512 10:09:05.977161 44707 net.cpp:411] rpn_bbox_pred -> rpn_bbox_pred
I0512 10:09:05.978274 44707 net.cpp:150] Setting up rpn_bbox_pred
I0512 10:09:05.978291 44707 net.cpp:157] Top shape: 1 36 13 13 (6084)
I0512 10:09:05.978296 44707 net.cpp:165] Memory required for data: 20554008
I0512 10:09:05.978303 44707 layer_factory.hpp:77] Creating layer rpn_cls_score_reshape
I0512 10:09:05.978317 44707 net.cpp:106] Creating Layer rpn_cls_score_reshape
I0512 10:09:05.978322 44707 net.cpp:454] rpn_cls_score_reshape <- rpn_cls_score
I0512 10:09:05.978332 44707 net.cpp:411] rpn_cls_score_reshape -> rpn_cls_score_reshape
I0512 10:09:05.978374 44707 net.cpp:150] Setting up rpn_cls_score_reshape
I0512 10:09:05.978382 44707 net.cpp:157] Top shape: 1 2 117 13 (3042)
I0512 10:09:05.978386 44707 net.cpp:165] Memory required for data: 20566176
I0512 10:09:05.978390 44707 layer_factory.hpp:77] Creating layer rpn_cls_prob
I0512 10:09:05.978400 44707 net.cpp:106] Creating Layer rpn_cls_prob
I0512 10:09:05.978404 44707 net.cpp:454] rpn_cls_prob <- rpn_cls_score_reshape
I0512 10:09:05.978410 44707 net.cpp:411] rpn_cls_prob -> rpn_cls_prob
I0512 10:09:05.978816 44707 net.cpp:150] Setting up rpn_cls_prob
I0512 10:09:05.978831 44707 net.cpp:157] Top shape: 1 2 117 13 (3042)
I0512 10:09:05.978834 44707 net.cpp:165] Memory required for data: 20578344
I0512 10:09:05.978839 44707 layer_factory.hpp:77] Creating layer rpn_cls_prob_reshape
I0512 10:09:05.978850 44707 net.cpp:106] Creating Layer rpn_cls_prob_reshape
I0512 10:09:05.978855 44707 net.cpp:454] rpn_cls_prob_reshape <- rpn_cls_prob
I0512 10:09:05.978863 44707 net.cpp:411] rpn_cls_prob_reshape -> rpn_cls_prob_reshape
I0512 10:09:05.978893 44707 net.cpp:150] Setting up rpn_cls_prob_reshape
I0512 10:09:05.978900 44707 net.cpp:157] Top shape: 1 18 13 13 (3042)
I0512 10:09:05.978904 44707 net.cpp:165] Memory required for data: 20590512
I0512 10:09:05.978907 44707 layer_factory.hpp:77] Creating layer proposal
I0512 10:09:07.265183 44707 net.cpp:106] Creating Layer proposal
I0512 10:09:07.265274 44707 net.cpp:454] proposal <- rpn_cls_prob_reshape
I0512 10:09:07.265292 44707 net.cpp:454] proposal <- rpn_bbox_pred
I0512 10:09:07.265303 44707 net.cpp:454] proposal <- im_info
I0512 10:09:07.265317 44707 net.cpp:411] proposal -> rois
I0512 10:09:07.266319 44707 net.cpp:150] Setting up proposal
I0512 10:09:07.266351 44707 net.cpp:157] Top shape: 1 5 (5)
I0512 10:09:07.266361 44707 net.cpp:165] Memory required for data: 20590532
I0512 10:09:07.266374 44707 layer_factory.hpp:77] Creating layer roi_pool5
I0512 10:09:07.266396 44707 net.cpp:106] Creating Layer roi_pool5
I0512 10:09:07.266408 44707 net.cpp:454] roi_pool5 <- conv5_relu5_0_split_1
I0512 10:09:07.266420 44707 net.cpp:454] roi_pool5 <- rois
I0512 10:09:07.266434 44707 net.cpp:411] roi_pool5 -> pool5
I0512 10:09:07.266453 44707 roi_pooling_layer.cpp:30] Spatial scale: 0.0625
I0512 10:09:07.266531 44707 net.cpp:150] Setting up roi_pool5
I0512 10:09:07.266548 44707 net.cpp:157] Top shape: 1 512 6 6 (18432)
I0512 10:09:07.266558 44707 net.cpp:165] Memory required for data: 20664260
I0512 10:09:07.266568 44707 layer_factory.hpp:77] Creating layer fc6
I0512 10:09:07.266587 44707 net.cpp:106] Creating Layer fc6
I0512 10:09:07.266599 44707 net.cpp:454] fc6 <- pool5
I0512 10:09:07.266612 44707 net.cpp:411] fc6 -> fc6
I0512 10:09:07.436396 44707 net.cpp:150] Setting up fc6
I0512 10:09:07.436501 44707 net.cpp:157] Top shape: 1 4096 (4096)
I0512 10:09:07.436511 44707 net.cpp:165] Memory required for data: 20680644
I0512 10:09:07.436540 44707 layer_factory.hpp:77] Creating layer relu6
I0512 10:09:07.436563 44707 net.cpp:106] Creating Layer relu6
I0512 10:09:07.436574 44707 net.cpp:454] relu6 <- fc6
I0512 10:09:07.436591 44707 net.cpp:397] relu6 -> fc6 (in-place)
I0512 10:09:07.436904 44707 net.cpp:150] Setting up relu6
I0512 10:09:07.436928 44707 net.cpp:157] Top shape: 1 4096 (4096)
I0512 10:09:07.436936 44707 net.cpp:165] Memory required for data: 20697028
I0512 10:09:07.436947 44707 layer_factory.hpp:77] Creating layer fc7
I0512 10:09:07.436962 44707 net.cpp:106] Creating Layer fc7
I0512 10:09:07.436972 44707 net.cpp:454] fc7 <- fc6
I0512 10:09:07.436986 44707 net.cpp:411] fc7 -> fc7
I0512 10:09:07.447237 44707 net.cpp:150] Setting up fc7
I0512 10:09:07.447273 44707 net.cpp:157] Top shape: 1 1024 (1024)
I0512 10:09:07.447283 44707 net.cpp:165] Memory required for data: 20701124
I0512 10:09:07.447298 44707 layer_factory.hpp:77] Creating layer relu7
I0512 10:09:07.447311 44707 net.cpp:106] Creating Layer relu7
I0512 10:09:07.447321 44707 net.cpp:454] relu7 <- fc7
I0512 10:09:07.447335 44707 net.cpp:397] relu7 -> fc7 (in-place)
I0512 10:09:07.447814 44707 net.cpp:150] Setting up relu7
I0512 10:09:07.447840 44707 net.cpp:157] Top shape: 1 1024 (1024)
I0512 10:09:07.447851 44707 net.cpp:165] Memory required for data: 20705220
I0512 10:09:07.447862 44707 layer_factory.hpp:77] Creating layer fc7_relu7_0_split
I0512 10:09:07.447875 44707 net.cpp:106] Creating Layer fc7_relu7_0_split
I0512 10:09:07.447885 44707 net.cpp:454] fc7_relu7_0_split <- fc7
I0512 10:09:07.447898 44707 net.cpp:411] fc7_relu7_0_split -> fc7_relu7_0_split_0
I0512 10:09:07.447912 44707 net.cpp:411] fc7_relu7_0_split -> fc7_relu7_0_split_1
I0512 10:09:07.447968 44707 net.cpp:150] Setting up fc7_relu7_0_split
I0512 10:09:07.447984 44707 net.cpp:157] Top shape: 1 1024 (1024)
I0512 10:09:07.447998 44707 net.cpp:157] Top shape: 1 1024 (1024)
I0512 10:09:07.448006 44707 net.cpp:165] Memory required for data: 20713412
I0512 10:09:07.448016 44707 layer_factory.hpp:77] Creating layer cls_score
I0512 10:09:07.448030 44707 net.cpp:106] Creating Layer cls_score
I0512 10:09:07.448040 44707 net.cpp:454] cls_score <- fc7_relu7_0_split_0
I0512 10:09:07.448055 44707 net.cpp:411] cls_score -> cls_score
I0512 10:09:07.448180 44707 net.cpp:150] Setting up cls_score
I0512 10:09:07.448199 44707 net.cpp:157] Top shape: 1 2 (2)
I0512 10:09:07.448210 44707 net.cpp:165] Memory required for data: 20713420
I0512 10:09:07.448222 44707 layer_factory.hpp:77] Creating layer bbox_pred
I0512 10:09:07.448246 44707 net.cpp:106] Creating Layer bbox_pred
I0512 10:09:07.448256 44707 net.cpp:454] bbox_pred <- fc7_relu7_0_split_1
I0512 10:09:07.448271 44707 net.cpp:411] bbox_pred -> bbox_pred
I0512 10:09:07.448412 44707 net.cpp:150] Setting up bbox_pred
I0512 10:09:07.448431 44707 net.cpp:157] Top shape: 1 8 (8)
I0512 10:09:07.448441 44707 net.cpp:165] Memory required for data: 20713452
I0512 10:09:07.448452 44707 layer_factory.hpp:77] Creating layer cls_prob
I0512 10:09:07.448472 44707 net.cpp:106] Creating Layer cls_prob
I0512 10:09:07.448483 44707 net.cpp:454] cls_prob <- cls_score
I0512 10:09:07.448496 44707 net.cpp:411] cls_prob -> cls_prob
I0512 10:09:07.448801 44707 net.cpp:150] Setting up cls_prob
I0512 10:09:07.448823 44707 net.cpp:157] Top shape: 1 2 (2)
I0512 10:09:07.448834 44707 net.cpp:165] Memory required for data: 20713460
I0512 10:09:07.448844 44707 net.cpp:228] cls_prob does not need backward computation.
I0512 10:09:07.448854 44707 net.cpp:228] bbox_pred does not need backward computation.
I0512 10:09:07.448864 44707 net.cpp:228] cls_score does not need backward computation.
I0512 10:09:07.448874 44707 net.cpp:228] fc7_relu7_0_split does not need backward computation.
…
